sans_model.pth (torch_old, 247862 bytes, 10 tensors)

conv1.weight f4 [6, 3, 5, 5]
000000 6d a8 c8 3c ed bd 95 3d 69 83 e3 bc 69 bd ab bd
       0.024494374 0.07311616 -0.027772622 -0.083857365
000010 40 8d ff bb b4 24 9b 3d 73 50 00 3d b2 08 52 bd
       -0.0077988207 0.0757536 0.031326722 -0.051277824
000020 85 32 a6 3b 03 2b 08 3d a6 25 e0 bd 7f 5a d7 bc
       0.0050719404 0.033244144 -0.10944681 -0.02628827
000030 75 8a c5 bd 76 ac c7 bd 5f af d3 3b 80 fd 76 bd
       -0.09645549 -0.09749691 0.006460115 -0.06030035
000040 91 c6 7f 3d 4f 88 ae bd 49 50 03 bd e0 15 c5 3d
       0.062445227 -0.085220926 -0.032058988 0.09623313
000050 c8 bb b0 bd 61 23 9c 3d e3 ff 4d bd 55 57 a0 bd
       -0.086295664 0.076239355 -0.05029286 -0.07829157
000060 2c 3e a0 3d 8f 33 90 3c 88 44 51 3d 80 f9 48 bd
       0.07824358 0.01760271 0.051090747 -0.049066067
000070 ca e2 b8 bd 43 c1 82 bd 07 c7 12 3d 80 6d d7 bd
       -0.090276316 -0.06384518 0.03583434 -0.10518932
000080 1a b7 85 bd c2 8d c1 bd 92 dd 60 bb fb 33 2d bc
       -0.065290645 -0.09450866 -0.0034311754 -0.010571475
000090 91 1a dc 3d 13 fd e0 bc a7 ec 0a 3c 19 0e d1 3d
       0.10747255 -0.027464425 0.008479274 0.10207767
0000a0 c1 d8 38 3b cf 15 3f bd e3 92 3d 3d 6a e9 dd 3d
       0.0028205367 -0.046651658 0.04628266 0.10835536
0000b0 18 7f e8 3c 8b d7 cb 3c 48 06 bf 3c 93 ae 5f 3d
       0.028380916 0.024883052 0.023318425 0.054609846
0000c0 ba bf 40 bd 1c cb 3d 3d fa 98 d7 bd 98 09 b9 3d
       -0.047057845 0.04633628 -0.10527225 0.09035033
0000d0 b8 59 69 3c 57 35 d8 bd bd 0a 4a bd 60 92 08 bd
       0.014242582 -0.10557049 -0.049326647 -0.03334272
0000e0 cc 5f 97 3d 18 b7 c9 bb 93 b8 a9 bb 01 d1 82 3d
       0.07391319 -0.0061558597 -0.0051794737 0.063875206
0000f0 b5 f9 a5 bd c2 eb 96 bd 26 8a c3 bd 16 63 67 3c
       -0.081042685 -0.07369186 -0.09547834 0.014122745
000100 ef 0c 4b bd a4 97 79 3d 9e 82 9f bc e6 14 bd bd
       -0.04957288 0.06093563 -0.019471463 -0.09232502
000110 f5 35 c9 bd 5f f6 9e 3d e5 f0 cf 3c 60 cb 16 3b
       -0.098247446 0.07761835 0.025383422 0.0023009405
000120 76 dd bd bd 1f 2e d6 bd b3 43 ca bd 85 7d 66 3c
       -0.09270756 -0.10458016 -0.09876194 0.014068012
000130 35 63 04 bd 5b 3c b3 bd 53 86 0c 3d 7d f7 2e bb
       -0.032321174 -0.08751746 0.03430779 -0.0026697807
000140 ff a5 08 3d e3 33 e6 bb 98 54 37 bd e0 78 a0 3d
       0.03336143 -0.0070252283 -0.04475841 0.07835555
000150 94 c5 97 3d fe 22 75 3d 5d 16 9e bd ab 5c 8c 3d
       0.07410732 0.059847824 -0.07719109 0.068536125
000160 51 e1 89 bd b0 7a af 3b 23 cd 48 3d fa 3c a3 3c
       -0.06732429 0.0053552017 0.04902376 0.019926537
000170 a2 67 e9 bd 2d d7 58 bd 70 b9 fb bd d7 ed 11 bd
       -0.113967195 -0.052939583 -0.12291229 -0.035627212
000180 7a 4e cd bd cc 50 9a 3d b4 d1 4a bd 22 9f b6 bc
       -0.10024734 0.07534942 -0.049516395 -0.022292677
000190 f5 36 e2 bd 2e 6f b3 3c 2f ae 9e 3d 02 cf c9 3c
       -0.110456385 0.0219036 0.07748067 0.024634842
0001a0 2c 53 a1 3d 22 cf 40 bd 35 59 aa 3c f2 4a c5 3c
       0.07877192 -0.047072537 0.02079449 0.024083588
0001b0 8b 03 94 3d 4e 46 ef 3d 2c 08 4d 3d 1c e1 a6 bb
       0.07227238 0.116833314 0.05005662 -0.005092753
0001c0 f8 86 e3 3d a4 64 de bd fd 8b c3 bc 82 31 8e bc
       0.111097276 -0.108590394 -0.023870463 -0.017357592
0001d0 50 be dd 3d de 45 67 bd fd 14 25 3b 92 a2 be bd
       0.10827315 -0.056463115 0.0025189512 -0.093083516
0001e0 38 68 89 bb ac 98 82 3d 63 10 1a 3c d9 62 f8 bd
       -0.004193332 0.06376776 0.009403321 -0.12128229
0001f0 99 d5 f9 bd 39 e2 8f 3d 0b ef 7a bd d3 b2 b8 bd
       -0.12198944 0.070255704 -0.061263125 -0.09018483
000200 18 3a d9 3d 36 6a c8 bc f5 b0 a8 bb 08 62 f8 bc
       0.10606784 -0.024464708 -0.005148048 -0.030320182
000210 41 58 87 3c 16 a5 84 3d 9e 00 d8 3d 85 d6 2a bd
       0.016521575 0.064768 0.10546993 -0.041708488
000220 32 f4 a7 3d d8 46 0e bb 8e f3 23 3d ba 38 61 bd
       0.082008734 -0.0021709707 0.040027194 -0.05498574
000230 2d 2a ca 3d f6 71 30 3d 16 a5 e9 bd fa 02 63 3b
       0.09871326 0.04307743 -0.11408441 0.0034639225
000240 5a 08 8b bd 2c a8 dc 3d 37 16 18 3d 12 1f ca 3d
       -0.06788702 0.10774264 0.03713056 0.098692074
000250 85 36 b6 bd c7 03 af bd bc 66 c6 bd 4e dd e4 3d
       -0.088971175 -0.08545642 -0.09687564 0.11175023
000260 61 ac 89 3c 35 18 9a 3d 96 4d 93 3d 3f 58 6d 3c
       0.01680583 0.075241484 0.07192533 0.014486372
000270 12 c6 55 3d 05 f9 23 bc af 1e a0 3d 83 a9 0a 3d
       0.052190848 -0.010008101 0.078183524 0.033853065
000280 3d 79 fb 3d d4 b4 cc bd 61 ab db 3c d1 cb b7 3c
       0.12278984 -0.09995428 0.026815118 0.022436054
000290 45 02 7b 3d f7 05 d1 3d b3 f6 8b ba 2e 7d 8d bd
       0.06128146 0.10206216 -0.001067838 -0.06908642
0002a0 b9 80 c9 3d bd bb a3 3d 13 84 15 bd 79 aa 54 bd
       0.09839005 0.079947926 -0.03650291 -0.051920388
0002b0 95 4c 18 bb a7 e9 c5 3d 27 75 20 3d 5b 31 89 3d
       -0.0023239006 0.09663706 0.039174225 0.06698867
0002c0 4e ee 68 3d 70 26 b3 3a 5e f0 07 3d 1e 36 bb bc
       0.05686789 0.0013668071 0.033188216 -0.022852954
0002d0 af 1f 8b 3d ea d9 ae bd 4b 70 05 3d 96 10 21 3d
       0.067931525 -0.085376576 0.032577794 0.03932246
0002e0 42 26 ec 3d 7c 9a 7e 3d 87 6f 87 3d cb 1a 83 3d
       0.115307346 0.062159047 0.06613069 0.06401595
0002f0 d3 ca f1 3d a0 c9 a0 bd 29 7f 3c bd 2b a9 fe bb
       0.11806264 -0.07850957 -0.046019707 -0.0077716312
000300 9f f2 86 bd d6 36 55 3d 30 7b c2 bd 10 eb 90 bd
       -0.06589245 0.05205425 -0.094961524 -0.070760846
000310 e8 7c f1 bd b0 08 ae 3d b3 2b 8c bb a6 24 cf 3d
       -0.11791402 0.08497751 -0.0042776703 0.10114412
000320 0d ef bb 3d 3d a5 c9 bd 42 14 9d 3d ce f1 0d 3d
       0.09176455 -0.0984597 0.076698795 0.03465443
000330 31 8b e5 3c 2b fa 99 3d 3f d3 fa 3d af 83 72 3d
       0.028020473 0.07518419 0.12247323 0.059207615
000340 33 93 be bd 60 ef 55 3b 17 d3 bf bc 7a f6 e7 3d
       -0.0930542 0.00326439 -0.023416085 0.113263085
000350 5f ad 58 3d 0b 89 da bb ac 3a 82 3d e0 2b c8 bd
       0.052899715 -0.006669169 0.06358847 -0.097739935
000360 9e 4a e5 bd 46 ee a4 3d 3c d5 b8 3c 24 35 c1 bd
       -0.11195873 0.080532596 0.022562616 -0.09433964
000370 3e 78 59 bd 7f 76 f1 3c 02 28 8e 3d 2c f1 af 3c
       -0.053093188 0.029475449 0.06941225 0.021477304
000380 be a6 e8 bd b9 9f 03 3d a0 6f 1c bd f3 41 1c 3d
       -0.113599285 0.032134745 -0.03819239 0.03814883
000390 d5 48 84 3d 9e f6 c9 bd ee 3c 07 3d 6c 82 d8 bd
       0.06459204 -0.098614916 0.03301709 -0.10571751
0003a0 2d 91 d3 3d f2 b1 95 bd c9 74 d0 bc d9 89 4c 3d
       0.103304245 -0.07309331 -0.025446313 0.04993615
0003b0 84 ee 29 bd 5d 34 36 3d 50 ed 5b bd bd 18 ea bd
       -0.04148723 0.04448353 -0.053693116 -0.114305
0003c0 35 cd ce bd 68 5c c7 bd 5e 00 04 be 6e 30 ad 3d
       -0.10097734 -0.09734422 -0.12890765 0.08456503
0003d0 64 e8 ff 3c 46 96 8e bd 29 01 db bc ae f4 06 be
       0.031238742 -0.06962256 -0.026733952 -0.13179275
0003e0 d6 3d ca bd ed 13 4b 3d 7b 90 cf 3d 47 e1 88 bd
       -0.098750755 0.04957955 0.10134979 -0.06683593
0003f0 cf c5 f4 3d 0c eb b4 3b b0 e4 a5 bb 0d 33 0b 3e
       0.119517915 0.005521184 -0.005062662 0.13593693

conv1.bias f4 [6]
000000 6a 51 8c bd 1e f5 b5 bd 05 9c 89 bd ac b5 70 3d
       -0.06851466 -0.08884643 -0.067192115 0.058767006
000010 a5 fd 97 3d f7 22 fd bc
       0.07421426 -0.030900462

conv2.weight f4 [16, 6, 5, 5]
000000 2e d5 12 bd f3 b7 19 3d 53 c0 5a 3d 51 6c 90 bd
       -0.035847835 0.037528943 0.05340607 -0.0705191
000010 37 1c 1e bd 19 a1 06 bd 0f b8 4a 3c d6 12 d0 bb
       -0.038601127 -0.03286848 0.012372985 -0.0063499017
000020 38 16 1c 3d 95 77 79 ba 98 cf 60 bc 2a ef 46 3d
       0.038107127 -0.00095164153 -0.013721369 0.04856793
000030 7b 50 11 3c ff 7a b0 bc ac fe 7d 3d f2 16 31 3d
       0.008869286 -0.021543024 0.062010452 0.043234773
000040 e0 56 86 3d ec 87 11 bc 8f 15 9f bb b8 de 91 3d
       0.06559539 -0.008882504 -0.004854865 0.07122558
000050 72 48 8b bd a4 c1 e3 bc 72 06 38 bd 2a f7 97 3d
       -0.06800927 -0.027802296 -0.04492802 0.0742019
000060 31 c8 19 bd a4 32 c6 bb 76 9c 96 bd 17 a6 8b bd
       -0.037544433 -0.0060485173 -0.07354061 -0.068187885
000070 68 ef 12 3d c3 82 a5 3d ed 02 99 3d 2f 59 5e 3d
       0.035872847 0.080815814 0.07471261 0.05428427
000080 17 31 45 bd 75 a6 39 3a 90 2f 5b 3d 92 fd 98 3d
       -0.04814252 0.0007081994 0.053512156 0.0747024
000090 5d f2 e4 3b ed 7d 03 bd 24 6c 08 3d 4a d5 b4 3d
       0.0069868998 -0.032102514 0.033306256 0.08829744
0000a0 97 90 e7 bb 3d bb 5d 3d 26 3f 32 bd a3 27 b4 3d
       -0.007066797 0.054133642 -0.043517254 0.087966226
0000b0 a8 72 70 bc af ca 6b bc 25 00 98 bd d4 38 70 3c
       -0.014675774 -0.014391585 -0.074219026 0.014661986
0000c0 e8 02 10 bc 9f cc a4 3d b7 bc 28 3d fe 69 e7 3c
       -0.008789755 0.08046841 0.041195597 0.028248783
0000d0 db c1 7c 3d 51 7d b8 bd 1b 16 b0 bb 85 3f 35 3d
       0.061708312 -0.09008277 -0.005373729 0.04425003
0000e0 37 39 3f 3d 91 63 50 bc 61 e6 f7 3c 9a 9b 24 3d
       0.046685424 -0.012719051 0.03026122 0.040187456
0000f0 58 62 d2 3c da a3 d8 3c e0 a6 83 bd ad 6d 2b bd
       0.02568166 0.026445318 -0.06428313 -0.04185264
000100 81 12 e9 bc f8 16 c9 3c 58 aa b2 bd b3 9d 76 bb
       -0.028451206 0.024547085 -0.08723897 -0.0037630617
000110 23 24 3f 3d a8 e7 c7 3c 0c 9f cd bd 3f 6e 97 3b
       0.046665322 0.024402454 -0.100401014 0.0046212967
000120 d2 96 9d bd 26 60 cd 3d 71 2d 89 bd 52 d8 23 bd
       -0.07694782 0.100281045 -0.066981204 -0.04000122
000130 fc 65 1d 3d 15 b1 63 bc 7d 4b 0b 3c af 3b a2 bc
       0.038427338 -0.0138972 0.0085018845 -0.01980385
000140 4a 14 6c 3d 4a 43 8a bd 00 ca c7 3d b0 f3 a0 bc
       0.057636537 -0.067511156 0.09755325 -0.01964745
000150 f9 36 bc 3d d9 09 63 3d bc cc 1c 3d 84 47 a6 3d
       0.09190173 0.055429313 0.038281187 0.08119109
000160 9e ad 60 3d 65 e3 70 3d 4a 8d 1d 3d dd 57 7c 3d
       0.054853074 0.05881061 0.038464822 0.06160723
000170 db d7 c2 3c b8 b5 e1 3d 36 89 86 3d f9 d7 1f 3c
       0.023784569 0.11020988 0.0656914 0.009756082
000180 d0 72 99 bc 6d 1b 8b 3d 54 75 f7 3d 29 a2 00 3c
       -0.018731505 0.067923404 0.120829254 0.007851162
000190 20 f7 c6 bb 4c b3 18 bd 5a 75 a3 bc 8c 48 54 bd
       -0.00607194 -0.037280366 -0.019953419 -0.051827
0001a0 78 34 e8 3c dc 80 03 3d 80 74 96 bb 2f f0 28 bd
       0.028345332 0.03210531 -0.0045915246 -0.041244682
0001b0 93 38 1c bd 50 21 8e bb 90 7a 93 3c a9 4a 4c bd
       -0.03813989 -0.0043374673 0.018002778 -0.04987589
0001c0 56 74 53 bd 7c b6 3a 3d b0 43 a3 bd 98 54 88 3d
       -0.05162462 0.045584187 -0.07971895 0.0665676
0001d0 10 f7 b7 3b c0 38 8d bb 8c e7 a6 3d f0 25 62 3d
       0.005614169 -0.0043097436 0.08149633 0.05521196
0001e0 77 53 d6 3c ec 0c 18 bd 15 ca e9 3b 3f 56 0d bc
       0.026162846 -0.0371217 0.0071346858 -0.00862652
0001f0 7a 82 51 3c b4 20 00 3c 80 ab a3 bd af 38 1e 3c
       0.012787456 0.007820297 -0.079916954 0.009657069
000200 b6 28 94 bd a5 8e 0b 3d 51 be 8c 3d 93 c9 42 3c
       -0.072343275 0.034071583 0.068722375 0.011888879
000210 6a a8 af bb 5b 5d 0e bd 3f a0 2e 3d f4 c6 57 bb
       -0.0053606527 -0.034757 0.04263329 -0.0032924982
000220 aa c0 47 3d c7 15 eb 3b a4 8b c3 3d 7f 65 40 3d
       0.048767723 0.007174227 0.09548119 0.046971794
000230 b8 88 83 3c a5 5f aa 3d c2 94 b8 3b 15 b2 8d 3d
       0.016056404 0.08319024 0.0056329677 0.06918732
000240 1b 2a 71 bd ed 8e 56 bd 69 6d 5b 3d 6f 43 9e 3c
       -0.058878046 -0.0523824 0.05357114 0.019319264
000250 6c a5 3e 3d 42 1e cc 3d c0 d5 2c 3d cc 90 91 3c
       0.046544477 0.09966709 0.042196035 0.01776924
000260 39 4e 05 bd da e8 9d 3d a8 c1 4f 3d 3c a6 8e 3d
       -0.032545302 0.077104285 0.050721794 0.069653004
000270 70 40 39 bc 30 a3 68 3d 34 70 74 3d 34 f8 b4 bc
       -0.011306867 0.056796253 0.059677318 -0.022091009
000280 84 44 88 3c e0 d0 6d bb 98 cc a2 3c df 34 40 bd
       0.016634233 -0.003628783 0.019872949 -0.04692542
000290 90 0b 54 3c 34 0a 37 3d 34 aa c6 bc 2a 63 bd bc
       0.01294221 0.044687465 -0.024251081 -0.023118574
0002a0 22 3f 7a bd 9e c3 11 3d 08 78 74 3c b0 54 16 3d
       -0.061095364 0.035586946 0.014921196 0.036701858
0002b0 9a 82 a5 bd 1a ec 50 bd d4 a7 65 3d ec 7f e7 3c
       -0.08081551 -0.051006414 0.056068256 0.02825924
0002c0 70 d2 76 bc 2c ea cf 3c 00 5f 84 3a 20 e7 72 bd
       -0.015064821 0.025380217 0.0010099113 -0.05930245
0002d0 ba 2f 1d 3d e0 0c 79 3d 9e eb 30 bd 60 cc 27 bc
       0.038375594 0.060803294 -0.043193452 -0.010241598
0002e0 a4 4a 2a bd fe da b6 bc c4 d9 6c 3d d4 1a 75 3d
       -0.04157509 -0.02232122 0.057824865 0.05984004
0002f0 00 1b 13 3a c0 8f 55 bb ca d0 c3 bc f5 70 41 bd
       0.00056116283 -0.0032586902 -0.02390327 -0.047226865
000300 7f bd 7b bd 80 0c 69 3d fe 40 87 bd 34 8b 9d 3d
       -0.061460014 0.056896687 -0.06604193 0.076925665
000310 74 5e d1 bc f4 7f e7 3c c2 43 55 bd c0 2f f3 3c
       -0.025557734 0.028259255 -0.052066572 0.029685855
000320 51 13 9b bd d8 ba 85 bc 50 b7 ef bb 18 56 67 bd
       -0.07572044 -0.016324446 -0.0073155537 -0.05647859
000330 84 5d 4f bd 6c ea 52 bd fc 7e 1b bd 7c ea b2 3c
       -0.050626293 -0.051493093 -0.0379629 0.021840326
000340 02 3b 9c bd 18 35 66 3c 24 05 3c 3d 07 6f 5b bd
       -0.07628442 0.0140507445 0.04590334 -0.05357268
000350 ee 70 80 3d 49 dd 90 bd 1d dd 4a bd 6b 0b 84 bd
       0.0627154 -0.07073457 -0.049527276 -0.0644749
000360 82 a2 11 3d 9a 89 eb bc 4c 30 6e 3d 4d 02 44 bd
       0.03555537 -0.028752137 0.05815153 -0.047853757
000370 7f 79 0e bd c0 f2 6c 3c c8 61 3d 3d d4 5d 05 3d
       -0.034783836 0.014462173 0.04623583 0.032560185
000380 4b 51 6b bd d2 62 84 3d ba d9 28 3d 5a 09 f3 bc
       -0.057450574 0.06464161 0.041223265 -0.029667545
000390 98 2a e7 bc f0 b0 1d bc 7d 0e 8a bd 0c f8 79 bd
       -0.028218552 -0.009624705 -0.06741045 -0.06102757
0003a0 de dc b2 bc 08 e7 91 bc d4 5a cb 3c 16 a0 0f 3d
       -0.021833833 -0.01781036 0.024823584 0.03506478
0003b0 f8 bb ae bc b4 8c 66 3d 80 b2 ed bb 78 5a fe 3c
       -0.021329865 0.05628653 -0.007253945 0.031048998
0003c0 e4 85 86 bc ac a1 5c 3d c7 e2 9f bd 7c d4 a6 3d
       -0.016421266 0.05386512 -0.07806926 0.08145997
0003d0 72 eb 28 bd b0 03 cd bb 0c 41 7b 3d ba da 53 bd
       -0.041240163 -0.006256543 0.06134133 -0.051722266
0003e0 48 23 7a 3d ec 21 ba 3c c1 91 6a bd b0 85 3f bc
       0.061068803 0.022721253 -0.057267908 -0.011689588
0003f0 d8 36 75 bd 48 4c 34 bc 14 31 f8 3c d2 0a 82 3d
       -0.059866756 -0.011004515 0.03029684 0.0634972

conv2.bias f4 [16]
000000 7e 3a de 3c a0 25 70 bb 64 5a 98 bd 80 36 cc 3b
       0.0271275 -0.003664352 -0.07439116 0.006232083
000010 e8 11 6f 3d 84 d4 31 3d 61 5a 8a bd 37 2d 63 3c
       0.058366686 0.04341556 -0.0675552 0.0138657605
000020 c8 9d 24 3d 70 27 9e 3d 41 da 0b bc 72 7a d1 3c
       0.040189534 0.07722366 -0.0085359225 0.025571082
000030 f6 e9 a3 bd 86 2c 2d bd b1 60 82 bd 09 79 87 3c
       -0.08003609 -0.04227879 -0.06366099 0.016537206

fc1.weight f4 [120, 400]
000000 00 ec 0e 3c d9 8a 1e 3d f8 63 71 bc d2 e3 dd 3c
       0.008723259 0.038706634 -0.014733307 0.027086172
000010 8a 41 2e bd a4 46 62 3c 6b 34 14 bd 00 ee f6 bb
       -0.04254297 0.013810787 -0.036182802 -0.007535696
000020 53 6d 47 3d fa 01 33 bd e2 e9 ee 3c ac d1 15 bc
       0.048688244 -0.043703057 0.029164258 -0.009144228
000030 a7 d0 cc bc 2a bc f5 3c 90 f7 34 bd 5a 70 1f bd
       -0.025001837 0.02999695 -0.044181406 -0.038925506
000040 00 7b 00 bd ad f8 2f 3d f7 09 ee bc 28 62 c2 bb
       -0.031367302 0.042961765 -0.029057486 -0.0059321113
000050 f9 d5 01 3d 21 0c 32 3d aa 81 bc bc 20 e1 20 bc
       0.0316982 0.0434686 -0.023011047 -0.009819299
000060 b2 93 d8 3c 40 24 50 bc 2d 84 16 3d 2f dc 46 3d
       0.026437614 -0.012703955 0.036747146 0.048549827
000070 28 45 33 bc a7 ea b9 bc 54 7c 77 3c 00 3d 35 39
       -0.010941781 -0.022694899 0.015105326 0.0001728423
000080 36 30 b4 3c a2 0e 9f 3c a6 79 b5 3c 58 b3 27 bc
       0.021995645 0.019416157 0.022152733 -0.01023563
000090 90 b6 ea bc e2 aa 9b 3c 87 db dd bc d0 ef cb 3b
       -0.028651506 0.019002382 -0.027082218 0.0062236562
0000a0 d9 05 08 3d d0 36 ea bb 3f b4 19 3d 40 21 bd bc
       0.0332087 -0.0071476474 0.03752541 -0.023087144
0000b0 35 cf 08 3d 17 b6 f4 bc d0 6d f7 bc 90 77 a1 3b
       0.033400733 -0.029871983 -0.03020373 0.004927583
0000c0 18 57 a3 3b 5e dd 82 3c 83 89 e4 bc 00 76 83 bb
       0.0049847476 0.015974697 -0.027897602 -0.0040118694
0000d0 54 07 5c 3c 7b 79 0d bd a0 fb 06 3c 90 34 cb bc
       0.013429482 -0.03453968 0.008238703 -0.024805337
0000e0 b7 6d 34 bd 94 df 4b bc 9e 04 c7 3c d4 9d 58 3c
       -0.044049945 -0.012443442 0.024294194 0.013221223
0000f0 28 fa e1 bb c9 17 46 3d d4 bc 0d 3c e3 7a 06 3d
       -0.006896276 0.048362527 0.008650977 0.032832038
000100 dd ef 29 3d 4f 34 4b bd 38 26 3f bd 73 dc 26 bd
       0.041488517 -0.049610432 -0.046667308 -0.04073758
000110 d2 3d f4 3c 0d 14 ac bc 65 7d 01 3d 30 3b e5 bc
       0.029814634 -0.021005655 0.031613726 -0.027982324
000120 80 fa ed 3b 2d df f2 bc a2 9c 84 3c da 7f b2 bc
       0.007262528 -0.029647434 0.01618797 -0.02178948
000130 7c d0 58 3c 7a 0e c8 3c 30 22 69 3b 57 07 c2 bc
       0.0132333 0.024420965 0.0035573356 -0.02368514
000140 5c fc 05 bd 6c c7 5a bc 10 7b 0c bd c1 6e 29 3d
       -0.03271137 -0.01335321 -0.03429705 0.04136539
000150 f6 3e 26 bd c0 a5 f9 bb 51 ca 0c 3d fc de 05 bd
       -0.040587388 -0.007618636 0.03437263 -0.032683358
000160 10 0e e3 bc 00 d4 61 3b eb 61 15 bd c0 bd a7 bb
       -0.027716666 0.0034458637 -0.036470335 -0.0051190555
000170 b8 9c 26 bd 98 51 1a bd f8 16 00 bc 7e 62 e0 3c
       -0.040676802 -0.03767547 -0.007817976 0.027390715
000180 8e 5d c4 3c 13 55 a3 bc 30 41 32 3b 70 a1 f5 bc
       0.023970392 -0.019938027 0.00271995 -0.029984206
000190 c6 89 c9 3c 14 d4 6d 3c 0e 39 f5 3c df 2b 32 bd
       0.024601828 0.014515895 0.029934432 -0.04349887
0001a0 83 65 1d 3d 7a c8 c1 bc 0c fa 8f bc ce f7 92 3c
       0.038426887 -0.023655165 -0.017575286 0.017940428
0001b0 9c 8d 7a 3c c9 68 07 3d f7 1a 33 3d f6 00 28 bd
       0.015292551 0.033058915 0.043726888 -0.04101654
0001c0 98 8e 3c 3c b4 fb 37 bc 00 0d 1b 3c d3 5f 46 bd
       0.011508606 -0.011229444 0.009463549 -0.04843123
0001d0 a0 6e ae bc fa 10 ba 3c 9b 82 2c bd 52 ab 81 3c
       -0.021292984 0.022713173 -0.042116743 0.015828762
0001e0 b2 81 bb 3c 52 2d db 3c d9 9f 27 3d 62 19 1e bd
       0.022888992 0.026755009 0.040923927 -0.038598426
0001f0 22 d1 80 3c 7e 14 a1 3c f0 07 d4 bb da 09 35 bd
       0.015724722 0.019663092 -0.006470673 -0.04419885
000200 d6 5d b4 3c 59 2e 01 3d 6a d1 99 3c ba 20 d4 3c
       0.0220174 0.03153834 0.018776614 0.025894511
000210 00 a7 e3 b9 d3 5e 3b 3d 8a 1a 0a bd e7 fc 18 3d
       -0.0004342124 0.04574473 -0.033716716 0.03735056
000220 ac 8e 6c 3c 78 11 08 bd 27 51 d5 bc 5a 17 18 bd
       0.0144383125 -0.033219784 -0.026039673 -0.037131645
000230 34 ec 23 3c d4 64 5f bc 27 78 03 3d 28 eb 6a bc
       0.010005046 -0.013634879 0.032097008 -0.014338292
000240 db ad 34 3d 00 a4 1e bb a8 1c e4 3b 51 95 26 3d
       0.044111114 -0.0024206638 0.006961424 0.040669743
000250 a9 f1 3b 3d 54 f1 38 3c 08 2a 1f bd a2 2e f2 3c
       0.045884762 0.011288006 -0.038858443 0.029563252
000260 ad dd 1e 3d d3 cc ac bc ea 8e 01 bd 38 d2 70 bc
       0.038785625 -0.021093762 -0.031630434 -0.014698558
000270 3e 7f 80 3c 30 f7 c3 bb 1d 33 e6 bc 2d 6a 22 bd
       0.015685674 -0.005980395 -0.028100545 -0.03965204
000280 10 56 b2 bc eb 73 13 bd 9d 17 3b 3d 48 28 05 3c
       -0.021769553 -0.03599922 0.045676816 0.00812728
000290 a8 a3 17 bd c0 ea 82 bc d1 33 08 3d b0 d5 bc bb
       -0.03702131 -0.015981078 0.03325254 -0.005762778
0002a0 d8 3f d0 bb 36 e6 bd 3c f0 be d0 bc 2a 18 e6 bc
       -0.006355267 0.023181062 -0.025481671 -0.028087694
0002b0 e0 64 31 3b 56 79 88 bc 2b 5f 0a 3d e8 2e a3 3b
       0.0027068183 -0.01665942 0.033782165 0.004979957
0002c0 30 4e 1d bd 80 d9 34 bc 95 16 22 3d b0 52 07 bb
       -0.038404644 -0.011038184 0.039572317 -0.002064865
0002d0 e7 92 cf bc 17 4d 4b bd a8 71 37 3c 70 f4 db bc
       -0.025338603 -0.049634065 0.011196531 -0.026849955
0002e0 27 40 f5 bc 27 11 c5 bc b0 d3 ca 3b 80 23 25 ba
       -0.029937817 -0.02405603 0.006189786 -0.00062995404
0002f0 d8 85 70 bc 00 2e ba 3a 52 26 c3 3c 06 0f 09 bd
       -0.014680348 0.0014204383 0.023821983 -0.033461593
000300 f7 f0 c6 bc 78 e2 4d bc b8 52 2b 3c cd 56 16 3d
       -0.024284823 -0.012566201 0.010456733 0.036703873
000310 d2 0b 30 bd a5 f3 28 bd 80 02 22 3c 56 e1 85 3c
       -0.042980023 -0.041247983 0.009888291 0.0163428
000320 03 3d 1e bd 7f 81 2d 3d 98 01 11 bc 20 e2 7a bb
       -0.038632404 0.042359825 -0.008850478 -0.0038281754
000330 e8 e8 f2 3b 89 69 49 3d 4a 78 11 bd 39 3f 42 3d
       0.0074130185 0.04917291 -0.035515107 0.047423575
000340 5d 04 df bc bd 72 f1 bc 72 51 c7 3c 40 a5 91 bb
       -0.02722376 -0.029473657 0.024330828 -0.004444748
000350 f3 ee 40 3d c8 25 77 bc b4 01 6c bc 6b a7 3e 3d
       0.04710288 -0.015084691 -0.014404703 0.04654638
000360 68 18 9c 3b d4 8b 72 bc 66 ea 93 3c 12 f3 e0 3c
       0.0047636516 -0.014803845 0.018056106 0.027459655
000370 e0 02 38 bd c3 64 de bc b1 0b 13 3d 02 5c d4 3c
       -0.044924617 -0.027147656 0.03589982 0.025922779
000380 d3 96 3d 3d e3 2c ff bc 95 1b 2e 3d 23 41 db bc
       0.046286415 -0.031149333 0.042506773 -0.026764458
000390 37 4f fb bc 2a 99 ed 3c 0c 18 25 bc 26 d6 88 bc
       -0.030677421 0.029003698 -0.010076534 -0.016703676
0003a0 f7 29 a4 bc b4 d6 08 bc a0 38 fe bc 49 88 3a 3d
       -0.020039542 -0.00835197 -0.03103286 0.045540128
0003b0 c2 01 40 bd 68 b6 65 bc 5a 6e e2 bc fd 0a 1f 3d
       -0.046876676 -0.01402054 -0.02764051 0.03882884
0003c0 80 e7 cc 3b 1f d0 3e bd e3 6d a6 bc 08 62 2b bc
       0.006253183 -0.0465852 -0.02031607 -0.010460384
0003d0 a9 0d 01 3d d0 fe 72 3b a0 83 a0 3a bd f4 1f bd
       0.031507168 0.003707815 0.0012246259 -0.03905176
0003e0 e6 9e eb 3c 88 88 60 bc 6a 76 ad bc 32 9d 39 bd
       0.028762292 -0.013704427 -0.021174628 -0.04531593
0003f0 18 48 37 bc d9 b7 38 3d 46 a5 b7 3c b5 5d 14 3d
       -0.011186622 0.045097206 0.022417676 0.03622218

fc1.bias f4 [120]
000000 6a 8f 86 bc b8 44 22 bd d4 29 ac 3c 9d 07 fe ba
       -0.016425807 -0.039616317 0.021016039 -0.0019380931
000010 9c 3e 1f bc ba 36 ce bb 00 2d 3d bc 69 9e 0a b9
       -0.009719517 -0.006293145 -0.011546373 -0.00013219718
000020 e6 c8 3e 3c 68 12 99 3c a7 43 da bc e3 0c c0 bc
       0.011644578 0.018685535 -0.026643587 -0.023443645
000030 a4 1e 27 3b c6 0a 10 bd 56 cb 0b bd 66 ed 09 3d
       0.002550044 -0.035166524 -0.034129463 0.033673666
000040 56 b0 21 3d fa 52 e7 bb 36 d6 19 bd e0 94 1a bb
       0.039474808 -0.007059452 -0.037557803 -0.0023587272
000050 84 2c f3 bc a6 2e 96 bc e8 0a 2b bd f9 21 2f 3d
       -0.029684313 -0.01833279 -0.041758448 0.04275701
000060 ca cd 2b 3d 3e 31 a7 bb c4 3a 14 3d 9f d3 00 bd
       0.041944303 -0.0051023057 0.036188856 -0.031451818
000070 45 65 25 bd d4 5e 92 bc 3b e5 37 3b cb ff 26 bc
       -0.04037978 -0.017867483 0.0028060216 -0.010192822
000080 b1 47 1d 3d 54 c7 03 3d 51 25 8f bc 41 22 fc 3c
       0.03839845 0.032172516 -0.017473849 0.030778052
000090 9b de 41 bd b3 50 12 bc 49 29 04 bd c3 6a b8 3c
       -0.047331434 -0.008930373 -0.032265935 0.022511845
0000a0 e7 f8 0d 3d 82 e9 ab bc 29 fd 1b bd 0a 3f a8 3c
       0.0346612 -0.020985369 -0.03808323 0.020537872
0000b0 1d f8 14 3d 9f 43 f5 3c e8 8e 2a bc 33 c3 41 3c
       0.03636943 0.02993947 -0.010410048 0.011826324
0000c0 ee 32 21 bd 5d 2c f5 bc 00 fe f0 3c c8 37 f9 3c
       -0.03935521 -0.02992838 0.029417992 0.030422106
0000d0 bd 58 04 3c 76 4f 06 3c dc b1 4b 3d 51 89 40 3d
       0.0080777975 0.008197656 0.049730167 0.047005955
0000e0 ae ac 5f bc 0f 47 2f bd e6 23 e9 3c 95 87 d3 bb
       -0.01365201 -0.042792376 0.0284595 -0.0064553716
0000f0 df 4b 01 3d 89 1f 41 3d ab 94 f7 3b b2 de 2f bd
       0.031566497 0.047149215 0.0075555644 -0.04293699
000100 6e 2d 3a bd 28 52 f5 bc 54 98 37 bd 11 83 21 bd
       -0.04545348 -0.029946402 -0.044823006 -0.039431635
000110 d6 e5 ad bc 84 4c 0d bd 44 b8 ac 3c d9 a6 3d bd
       -0.021227758 -0.0344968 0.021083958 -0.046301696
000120 3f cd 16 bd 68 c9 96 bb 52 91 2b bd 42 c6 ed bc
       -0.03681683 -0.004601646 -0.041886635 -0.0290252
000130 04 2e f2 3b ee 4f ce 3c 86 63 2a 3c 8b a8 3d bd
       0.0073907394 0.025184598 0.010399705 -0.046303313
000140 89 b4 10 bd 30 dc bb bb b3 1a 08 bd 32 28 a5 3c
       -0.03532842 -0.0057330355 -0.033228587 0.020160768
000150 6d 67 45 3d c3 c7 b9 bb 5a bd 3e bc 48 6c 35 bd
       0.048194338 -0.0056695654 -0.011641825 -0.04429272
000160 fb 51 7d 3c 84 c8 1c bc 63 46 44 bd 66 48 12 3d
       0.01546144 -0.009569291 -0.04791869 0.035713576
000170 15 ad a9 3b 39 da 3c 3d 94 a2 8e 3b 9a 2b c7 bc
       0.0051781037 0.04610655 0.004352877 -0.024312783
000180 7e 0c f4 bc 49 b9 37 3d c4 3a f4 3b 74 1a e0 3c
       -0.029791113 0.044854436 0.0074532945 0.027356364
000190 54 f6 ca bb 2e 01 c3 bc e6 a1 b6 bc d5 66 4d bd
       -0.0061939154 -0.023804273 -0.022293996 -0.050146896
0001a0 0c 4c 97 3c ed 43 a8 bc c7 5f 21 bd 31 f9 fd 3b
       0.01846888 -0.020540202 -0.03939798 0.007750653
0001b0 b6 e1 b1 bc 2a 69 48 3d 79 3f e1 bb bb 0c 90 bb
       -0.021714073 0.048928417 -0.0068740216 -0.004396049
0001c0 4d c4 3c 3d 3b 5a a0 bc dd 93 4b 3d 96 6d 09 3d
       0.046085645 -0.019574275 0.04970156 0.033551775
0001d0 63 40 a3 3c 56 e0 35 3c 9e f4 3b 3d 43 f0 07 bd
       0.019928163 0.011100849 0.045887582 -0.033188116

fc2.weight f4 [84, 120]
000000 af e1 87 bd c6 2b c3 3c 76 52 ff 3c de 92 52 3d
       -0.066348426 0.023824584 0.03116725 0.051409595
000010 f5 35 85 bd 00 fe fa 3b 53 10 91 bc de 78 a4 bb
       -0.06504432 0.0076596737 -0.01770798 -0.0050192913
000020 60 fa 31 bd d4 ed 1c bd 97 00 3f bd 14 97 95 bd
       -0.043451667 -0.038312748 -0.046631422 -0.073042065
000030 bd de 90 3d dc 22 9f 3d c0 c5 ab bd b0 39 d4 bc
       0.07073734 0.07770321 -0.08387327 -0.025906414
000040 c0 f5 9f bd 1c 26 6d bd 0d f4 a7 3d a3 38 5f bd
       -0.07810545 -0.057897672 0.08200846 -0.054497372
000050 75 87 44 3c 58 d3 8f bd 1b c0 f3 3c b2 59 8d 3c
       0.011995186 -0.070227325 0.029754689 0.017254684
000060 d4 71 59 3d 51 fb b6 bd b2 dd 73 3d 91 9a a3 bd
       0.05308707 -0.089346536 0.059537597 -0.079884656
000070 dc 8e ba 3d b8 66 42 3c 8b 29 b3 bd 25 6f 99 3d
       0.091092795 0.01186531 -0.08748158 0.07491902
000080 08 69 de 3c ea 39 87 3d e5 7c 00 3d 88 9d 8c 3d
       0.027149692 0.06602843 0.03136911 0.06865984
000090 15 ee 8b bc ab 51 89 3c 6d 8a 97 bd 27 be bd 3c
       -0.0170813 0.016762575 -0.073994495 0.02316196
0000a0 06 d1 9e 3d 1b b9 87 3d 3a dc 6b 3d 16 32 d5 3c
       0.07754712 0.06627103 0.05758307 0.02602486
0000b0 c2 b6 6c 3d 79 4e aa bd 20 8b 34 bd c4 e6 7b bc
       0.05779148 -0.08315749 -0.044077992 -0.015374843
0000c0 d1 05 c7 bc c7 c8 35 bd 43 fb 5a bd c5 c1 59 bd
       -0.024294766 -0.04438093 -0.053462278 -0.05316331
0000d0 ba 4f 9e 3c 26 12 91 bd d6 e3 94 3d 9d c8 a0 bd
       0.019325126 -0.0708354 0.07270019 -0.07850764
0000e0 fe 97 b2 3d 5d e6 91 bd 1b 0e a4 3d 31 c0 a3 ba
       0.087203965 -0.071240164 0.08010503 -0.0012493191
0000f0 b0 89 2c bc d8 a4 01 bc 46 f0 e2 bc c4 b4 7a 3c
       -0.010530874 -0.007912837 -0.027702462 0.015301887
000100 d8 14 5b bd 6f df 3c bd 23 ca 3c bc 39 d2 72 3d
       -0.053486675 -0.04611152 -0.0115228025 0.059282515
000110 f8 49 a4 bd 80 5a 57 bc 47 5f 53 3d e8 3d 7a 3c
       -0.08021921 -0.0131441355 0.051604535 0.015273549
000120 16 ec ce bc 70 48 51 3c b8 dd 87 3d 0d a5 89 bd
       -0.025259059 0.012773618 0.06634086 -0.06720934
000130 fc fc 6a 3d e9 b8 ac 3b 66 f3 ed 3c 9b 9f 59 3d
       0.05737017 0.0052710664 0.029046725 0.053130727
000140 af 88 63 3d cf d8 57 3d de 6f 8e 3d ff 48 0c 3c
       0.055550274 0.052697 0.06954931 0.0085623255
000150 ae a6 02 bd 67 4d a8 3d 8e d5 10 3d c0 c7 f6 3b
       -0.03189724 0.08217888 0.03535991 0.0075311363
000160 6b 9a 9e 3c eb 20 97 bd 8a 7f 4f 3d 0b 59 8f bd
       0.019360742 -0.073793255 0.05065874 -0.069994055
000170 7b a4 e2 bc 1a 83 ed 3c 6c 96 0e 3d ea 4f 97 bd
       -0.027666321 0.028993178 0.034811422 -0.07388289
000180 74 10 59 bc 60 93 58 3d 3a af 06 bd f3 7a d0 3c
       -0.013248552 0.052874923 -0.032881953 0.025449252
000190 17 91 aa 3d be b3 7b 3d ea 01 49 3d 09 e9 17 bd
       0.08328455 0.061450712 0.04907409 -0.037087474
0001a0 b4 a0 97 3d 2e da 6f 3d e1 4e e5 3c 79 d8 66 3d
       0.074036986 0.05855768 0.027991714 0.05635879
0001b0 80 95 19 3b c9 58 18 3b b0 72 b5 bd 60 02 0e 3c
       0.0023435056 0.002324628 -0.088597655 0.008667558
0001c0 e1 fb 86 bc 85 35 7b 3d 5e 38 9a bd 1a 74 b1 bd
       -0.016477527 0.061330337 -0.075302824 -0.08664723
0001d0 6d a6 56 bd f0 71 4c 3d e7 4e a6 bd 9c 85 a6 3c
       -0.05240481 0.049913347 -0.08120518 0.020327382
0001e0 d0 84 28 3c 19 9c 2a 3d cc 7b 9c 3d f2 4e 1b 3c
       0.010285571 0.041652773 0.076408 0.009479271
0001f0 cf cb 8b 3d 66 58 77 3d 03 6c 4f 3d 75 bf 12 bd
       0.06825983 0.060387038 0.050640117 -0.03582712
000200 82 54 81 3c b8 ac 0f bc b1 11 46 3d a0 59 13 3b
       0.015787367 -0.008769207 0.048356716 0.002248384
000210 3a b6 2b bd cb 06 42 3d 69 ba ba bd a5 9e 45 bd
       -0.04192183 0.04736976 -0.09117586 -0.048247
000220 a5 4f 6e 3d 78 4a 17 bc a6 83 03 3d 74 00 24 bc
       0.058181424 -0.009234063 0.03210797 -0.010009874
000230 f6 ad c9 ba 78 3f 9d bd a6 c1 20 ba ac 1a 10 3d
       -0.0015386927 -0.07678121 -0.00061323715 0.035181686
000240 c3 47 6b 3c 90 a8 86 3d 82 41 87 3d 3a 33 98 bd
       0.014360371 0.065751195 0.066042915 -0.07431646
000250 6c ce e8 3c 50 44 17 3d 09 8d 52 3d 51 0c e6 bc
       0.028418742 0.036930382 0.051404033 -0.028082045
000260 60 7e 24 bc 1d d3 37 3d 1a ad 03 3c b9 bd 01 bd
       -0.010039896 0.044879068 0.008036876 -0.031675074
000270 62 be 89 bd ba 23 5d 3d df 01 5b bd ca ed ab 3d
       -0.06725766 0.05398915 -0.05346858 0.08394964
000280 37 71 80 3d 0c 92 48 3d f1 93 80 3d bf ac 50 bc
       0.06271594 0.048967406 0.062782176 -0.012736498
000290 57 85 87 bc 47 27 f6 3c ab 0a e7 3c 4c ed 53 3d
       -0.016543074 0.030048026 0.02820333 0.051739976
0002a0 f8 33 94 bc d0 9d 82 bd b4 af 7e bd 45 bc 49 bc
       -0.018091187 -0.063777566 -0.062179282 -0.012312953
0002b0 3f 0b 8f 3d cd fb 71 3d a0 b5 2e bd 60 7d 6b 3d
       0.06984567 0.059078027 -0.04265368 0.057492614
0002c0 95 72 b2 3d a0 49 47 3c e0 e1 d0 bc 71 dc 09 3d
       0.08713261 0.01216355 -0.02549833 0.033657495
0002d0 26 cf 65 bd 28 56 2a 3c a3 7a cf 3c 87 6c b9 bd
       -0.056105755 0.010396518 0.025327032 -0.09053903
0002e0 9a da 65 bd f6 8c 80 bc a3 5e 5a bd fe 62 81 3d
       -0.056116678 -0.015692215 -0.05331291 0.063177094
0002f0 07 36 3a 3d 76 08 3f bd 97 8e 09 bd 57 43 0f bd
       0.04546168 -0.04663893 -0.03358325 -0.03497633
000300 af f4 27 3c ea 78 ba 3d 51 cd 4f 3d c8 17 19 3b
       0.010251208 0.09105094 0.050732914 0.0023360122
000310 af 5d 38 bd fe 19 c1 3d 8c 90 fc bc 71 48 35 bd
       -0.04501122 0.09428786 -0.030830644 -0.04425854
000320 f8 4d 2c bd 8d 6d b5 bd de 2b ff bb ac 28 24 3d
       -0.042066544 -0.08858786 -0.007787212 0.04007785
000330 a6 2b b9 3d b3 4d 6b 3d ae fe 37 bd df 6a ca bc
       0.090415284 0.057447147 -0.044920616 -0.024709163
000340 35 cd 4f 3d 37 61 c4 3c 05 0b 88 bd 43 42 14 bd
       0.05073281 0.023972137 -0.06642727 -0.036196005
000350 84 24 b9 3b 8f 91 ad 3d 0e 6d 39 3d b3 5b 21 3d
       0.005650105 0.08475029 0.04527002 0.03939409
000360 4f 14 7b bd ef fa 78 3a 11 3b 62 bc dc e9 77 bd
       -0.061298665 0.0009497841 -0.013808028 -0.06052576
000370 3e 72 08 3d 69 1a b7 bd 98 54 9f 3c 19 b2 f9 3b
       0.033312075 -0.08940584 0.019449517 0.007620108
000380 06 13 fa 3b 70 bd 8a 3b 2d f5 57 bd ed d5 69 bd
       0.0076316623 0.0042340085 -0.052724052 -0.05708878
000390 43 e2 8b bd 5d 1d 69 bc d0 e5 a4 3d 8a c3 10 bd
       -0.068302654 -0.014228192 0.08051646 -0.03534273
0003a0 44 7a 99 bc c8 29 87 bd ad 49 bc 3c 15 b8 de bc
       -0.018735059 -0.06599766 0.02298435 -0.027187387
0003b0 3f a3 f7 bc b8 f9 c0 3c 88 26 13 bc 4d 43 93 3d
       -0.030229209 0.023556575 -0.008981355 0.07190571
0003c0 cc 55 76 3d ba 54 c4 bc d0 4a 9f bc ee 3d 34 bd
       0.060140416 -0.023966182 -0.019444853 -0.044004373
0003d0 b4 46 f4 bc e9 d6 b8 bd 69 d5 52 bd 56 b9 89 3c
       -0.02981887 -0.09025366 -0.051473055 0.016812008
0003e0 08 6b 64 bc 8c 6a c5 bc 65 81 4c bd 88 ae 21 3d
       -0.013941534 -0.024098657 -0.049928088 0.039473087
0003f0 d0 17 1a 3d d6 35 83 bd ed a1 53 bd e6 bf 3e bd
       0.037620366 -0.06406753 -0.051668096 -0.046569727

fc2.bias f4 [84]
000000 98 65 63 3d 60 52 4c bd 00 fa 07 bd 79 6e 6f 3d
       0.05551681 -0.049883246 -0.033197403 0.058454964
000010 0f b0 98 bb 6b 45 c5 bc 24 99 9d 3d c7 99 1a 3d
       -0.0046596597 -0.024080953 0.07695225 0.03774431
000020 c1 de 57 3c 07 0e ad 3d c4 11 4e 3c ed 73 87 3d
       0.013175667 0.08449941 0.012577478 0.06613908
000030 b4 4d b5 bd b0 41 9a bd 80 a2 4d 3c 75 79 91 bc
       -0.08852711 -0.0753206 0.01255095 -0.01775811
000040 2f d4 22 3d 41 86 71 bb 19 26 5f bd 51 72 97 bd
       0.039753135 -0.0036853703 -0.054479692 -0.07394851
000050 da 63 90 bd 5b ea 10 3b 34 d8 2f 3d f3 66 69 bd
       -0.07050295 0.0022112343 0.042930797 -0.056982946
000060 9f 26 06 3b 45 56 9d bd 31 c1 8d 3c 62 cb da bc
       0.0020469797 -0.0768247 0.017304035 -0.026708309
000070 8d 59 30 3d e9 ac 03 bd 4b 42 1a bd 4b 64 b3 3d
       0.043054152 -0.03214732 -0.03766088 0.08759364
000080 d8 fd 45 3d b2 fc b3 3d 60 83 71 3d c1 8b a8 3d
       0.048337787 0.08788432 0.05896318 0.08229781
000090 2d 36 1f 3d 58 18 25 3d eb e4 10 3d 04 fb b9 3d
       0.038870025 0.04030642 0.035374563 0.090810806
0000a0 6d 5e 49 3d 79 f5 a1 bd f1 3c 46 3d 44 c3 08 bc
       0.049162317 -0.07908148 0.048397962 -0.008347336
0000b0 9d 5d 5f 3d 88 53 80 3c 21 28 71 bd e3 a0 a0 bc
       0.054532636 0.01566483 -0.05887616 -0.019607967
0000c0 da 72 34 bd 12 73 9a 3d aa 0d 23 bd db b7 34 3d
       -0.044054843 0.07541479 -0.039807953 0.04412065
0000d0 c6 28 8d bb 70 e8 55 3c 29 3a a4 bc e6 03 92 3d
       -0.004307839 0.013055906 -0.020047264 0.0712965
0000e0 4b a1 bd 3c 63 6c a0 bd 3e cb 73 3c 18 48 3d 3d
       0.0231482 -0.07833173 0.01488 0.046211332
0000f0 97 f6 18 bc d4 10 8f 3d f9 df 4d 3d 59 d0 a2 bd
       -0.009336135 0.069856316 0.050262425 -0.079498954
000100 9b ad 94 bc 8e 5e 80 bd b5 08 e5 bc a0 ce 90 bc
       -0.018149188 -0.06268035 -0.027958253 -0.017676651
000110 56 c5 46 3d 8f 51 60 bd 45 05 ad 3d 50 c0 01 3c
       0.048528038 -0.05476528 0.08448271 0.007919386
000120 b5 a9 ab 3d ce fb 4e bc b9 1d f3 3a fb 0f ad bd
       0.083819784 -0.012633277 0.0018548287 -0.08450314
000130 25 d1 9c bd ed 8a a4 3c 48 53 86 3c e9 cb a9 bd
       -0.07657079 0.020085776 0.016397133 -0.08290846
000140 d8 27 3a bc cd 5f 27 3d 10 35 30 3d 09 58 69 3d
       -0.011362039 0.040862847 0.043019354 0.056968722

fc3.weight f4 [5, 84]
000000 2c f5 19 bd 42 63 ca bd aa a7 c2 3c 6a 04 a3 bd
       -0.03758733 -0.09882213 0.02376159 -0.07959826
000010 af fd 90 bd 7e 61 93 bd 84 5c bb 3c 2f 39 ad bd
       -0.07079636 -0.071963295 0.022871263 -0.084581725
000020 0f 04 c9 bc 8d 27 03 be 61 84 8d 3d 54 28 e7 3d
       -0.024538068 -0.12808056 0.06910015 0.11286989
000030 9e 73 c4 3d da aa 54 3c 50 bd ce 3d 92 c1 4f 3d
       0.09592365 0.012980187 0.10094702 0.050721712
000040 ee 83 88 bd a6 d0 b0 3d fb b8 a9 3c 73 55 68 3d
       -0.066657886 0.086335465 0.020718088 0.056722116
000050 79 c9 c6 3d c0 cc 8e bd 1f 1a 0f 3c d3 16 8e 3d
       0.097063966 -0.06972647 0.008734255 0.06937947
000060 5d 4b 97 3d fa 7d 18 3d 4a c4 ae 3b 86 56 d8 3d
       0.07387421 0.037229516 0.005333458 0.10563378
000070 78 9c 94 3c a3 a1 cb 3d e1 57 d1 bd a9 6c c6 3d
       0.018141016 0.09942939 -0.1022184 0.09688694
000080 6c 80 4b 3d 87 ea 96 bc 26 4f 51 3d 23 df b9 3d
       0.04968302 -0.018422378 0.051100872 0.09075763
000090 9c 21 1f 3d 21 a0 b6 3d 9b 6a d8 3d cc d2 93 bc
       0.03885041 0.08917261 0.105672084 -0.018044852
0000a0 19 5c 9f bc f3 68 cc 3d 74 bc d8 3d 93 5f b4 bd
       -0.019453095 0.09980955 0.105828196 -0.08807292
0000b0 fb e5 83 3d 14 3b b7 3d 70 2e 9e 3c 32 67 86 bd
       0.0644035 0.08946815 0.019309253 -0.06562652
0000c0 30 96 67 bc 1a e8 f4 3d e7 28 b5 bd 42 3c bf 37
       -0.014134929 0.11958332 -0.08845692 2.2797034e-05
0000d0 69 83 31 bd 6d d9 9c 3d 4f de eb bd 99 cb e8 3c
       -0.043338213 0.07658658 -0.115170114 0.028417395
0000e0 43 c0 d5 3d c9 d3 f0 bc 64 0e bb bd e4 a0 8e bd
       0.10437062 -0.029397862 -0.09133604 -0.06964281
0000f0 7a 17 b6 bd 50 61 38 bd 45 02 6f bd 91 5d 03 3d
       -0.088911965 -0.04501468 -0.058351774 0.032071654
000100 54 be 2e bd 41 a7 99 bc 78 66 de 3c e4 19 b4 bd
       -0.04266198 -0.01875651 0.02714847 -0.08794001
000110 ac 4e 84 3d de 19 2c bd c4 b8 a9 3a 34 55 ee bc
       0.06460318 -0.042016856 0.0012948741 -0.029093362
000120 01 97 bf bb fd 38 a8 bd 9d 08 b7 3d 7e 59 29 3d
       -0.0058468585 -0.08213995 0.0893719 0.041345112
000130 b4 e1 c7 3d 4f ed b8 bd 4b f5 3f bc 19 13 14 bd
       0.09759846 -0.09029638 -0.011716197 -0.036151025
000140 6d 18 b8 3d 0d 70 8a bd 00 c2 a8 ba 40 77 68 bb
       0.08989034 -0.06759653 -0.0012875199 -0.003547147
000150 27 97 ed bc d0 35 48 3d 7f 67 aa 3d 8a 1c c2 3d
       -0.02900274 0.048879445 0.083205216 0.094781
000160 f3 0d f7 3d 13 2b a2 bc 54 de 42 bd 65 71 cf bc
       0.120632075 -0.01979593 -0.04757531 -0.025322625
000170 13 9e 22 bd 6f 0f de 3b 00 22 d4 bd c5 bc 02 3c
       -0.039701533 0.006776742 -0.103580475 0.0079795765
000180 26 82 a4 3d 2a 9b 34 bb ae 06 c0 bd 27 97 04 bd
       0.08032636 -0.0027558305 -0.09376274 -0.032370713
000190 6d 47 cb 3c e9 50 ac bc a3 e7 64 bd 6f 67 83 3d
       0.024814332 -0.021034675 -0.05588497 0.06416213
0001a0 10 3d 67 3d 2b 20 39 3d a9 a5 4a 3d 0e c3 08 3d
       0.056454718 0.045196693 0.049474392 0.033389144
0001b0 0f fd 7d bd 57 aa 9b 3d 45 5f 83 bd f9 2d d3 bd
       -0.062008914 0.07600849 -0.064146556 -0.10311503
0001c0 6d 64 2c bc 08 1e a7 bc 65 d8 e0 bd 1a 8a 93 bd
       -0.01052199 -0.020400062 -0.10978774 -0.07204075
0001d0 d8 e0 f2 3c e1 0e 10 bd 64 51 46 3d 0b 65 f4 bc
       0.02964823 -0.03517044 0.048417464 -0.029833337
0001e0 3f 02 89 bd fc 8c dd bc 7e df ef bc b4 55 c1 3c
       -0.066898815 -0.027044766 -0.029281374 0.023600437
0001f0 b9 f1 9e bd 66 03 3a 3c 1b 05 c5 3d d4 ad 9d bd
       -0.07760949 0.011353349 0.096201144 -0.07699171
000200 b2 42 99 bd 38 5d 27 3d f1 51 be bd dd 72 0f 3d
       -0.07483424 0.040860385 -0.09292973 0.03502165
000210 06 6b 0f 3d f1 c2 ad 3d 19 36 f8 3c b6 0d 96 3d
       0.035014175 0.08484448 0.030299233 0.07326834
000220 78 1f 6d 3d 9c bc b2 bd 18 23 94 bd fb 8f 4c bd
       0.05789134 -0.08727381 -0.07233256 -0.049941998
000230 2b 34 07 be 49 9b 97 bd e6 be f9 3c 87 35 46 bc
       -0.13203494 -0.07402665 0.030486535 -0.012097723
000240 59 4d ad 3d c8 46 ee 3d ff 3c db 3d 00 b5 a2 3c
       0.084620185 0.11634594 0.107049935 0.019861698
000250 b5 1c c6 3d cd ee 24 3c 55 37 79 3d fc c6 89 3d
       0.09673444 0.0100667 0.060843784 0.067274064
000260 7b b9 09 bd 47 93 72 bd 0a 06 4f bd 20 10 19 3a
       -0.033624154 -0.059222486 -0.05054287 0.00058388896
000270 44 e7 47 bd 03 e0 78 bb 77 7d 89 3d fd a5 d7 3d
       -0.048804536 -0.0037975318 0.06713384 0.105297066
000280 a6 8b f2 3d c4 68 e4 bb 8a 01 b3 3d f2 31 61 bd
       0.11843042 -0.006970497 0.08740528 -0.054979272
000290 1d d5 dc 3d 13 25 af bd 2d 12 ce 3d 2f de 52 bc
       0.10782836 -0.08551993 0.100620605 -0.0128703555
0002a0 39 2a 74 3d 32 71 bd 3d ff 0c 89 3c 6f fc d8 3d
       0.05961058 0.09250106 0.01672983 0.10595023
0002b0 f7 9c 77 bd 45 ca 8f 3d 9c 04 ef 3c e8 fa 3c bc
       -0.060452428 0.07021002 0.029177003 -0.01153443
0002c0 b2 9c b8 3b 31 3a af bd 2a d5 83 3d 90 83 b1 3d
       0.005633914 -0.08556021 0.06437142 0.08667672
0002d0 26 ce 34 ba 81 da 25 bc a9 8f 3b bd 23 28 9d bd
       -0.00068971736 -0.010122896 -0.045791302 -0.07673671
0002e0 60 9a 7a 3d 71 40 b1 3d d8 f1 9a bd 98 12 d3 3d
       0.06118238 0.08654869 -0.07565659 0.10306281
0002f0 ba 9d 21 bc fc c3 a0 3d ea ba f3 bd e8 f4 bc bd
       -0.009864265 0.07849881 -0.119008854 -0.092264
000300 2d 58 cc bd a7 88 10 bd 7e 78 a5 bd cc 1f bb bd
       -0.09977756 -0.03528657 -0.08079623 -0.09136924
000310 df 70 e4 bd 3b d1 b8 3d 20 cb 94 3c 5d d8 07 3d
       -0.11154341 0.090242825 0.018163264 0.033165324
000320 4f b0 21 3d 84 7d b7 bd 8a 80 8a 3d d1 5e 14 3d
       0.03947478 -0.08959487 0.06762798 0.036223236
000330 b4 21 ae 3d b6 9e 1a 3d fc c2 bf 3d 9e eb c2 3d
       0.08502522 0.037749015 0.09363362 0.09517597
000340 50 19 d0 3d 3c 42 1f 3d 64 aa b9 3c e4 dc a8 3d
       0.10161078 0.038881525 0.022664256 0.082452565
000350 d7 9c a8 3c 3c a5 5f 3d 4e 99 a6 bc 7d 05 96 bd
       0.0205826 0.05460094 -0.020336773 -0.073252656
000360 be 62 a2 bd b6 00 04 be 01 71 7b bc 6f c7 61 bc
       -0.0792899 -0.12890896 -0.015346766 -0.013780459
000370 99 70 ed 3c 0d 30 a6 3d d7 bf 52 3d 80 8f 68 3c
       0.028984355 0.08114634 0.051452484 0.014194369
000380 d4 b1 85 3d dc ae a6 3d 41 6b 78 bd dd 23 c8 b9
       0.06528059 0.081388205 -0.06064916 -0.00038173693
000390 78 75 a1 3d e7 c9 c6 3d db a1 97 3d bd b4 3c ba
       0.078837335 0.097064786 0.07403918 -0.0007198563
0003a0 e0 21 58 bb ba 80 d0 3b 15 b9 6e 3c 8f 2f 83 bd
       -0.0032979175 0.0063630017 0.014570494 -0.064055555
0003b0 c2 a8 96 3d 6a f0 77 3d 7d ff 99 bd 1c 08 81 3d
       0.07356407 0.06053201 -0.07519434 0.06300375
0003c0 23 28 85 3d c5 22 8b bd d7 c8 a5 3d c3 c8 88 3d
       0.06501796 -0.06793741 0.08094948 0.06678917
0003d0 d4 4b ae bd 99 e5 63 3d ed df 51 3d 62 7f 2e bc
       -0.08510557 0.055638883 0.051238943 -0.010650488
0003e0 6a 1e d3 bd 2f c5 a7 3d 86 e0 50 3d 52 ea a4 3d
       -0.103085354 0.08191907 0.050995372 0.080525056
0003f0 f6 07 12 3d a4 65 e1 3a a1 e6 26 bd 49 2c 32 3d
       0.035652123 0.0017196429 -0.04074729 0.043499265

fc3.bias f4 [5]
000000 9f 62 d8 3d 0b ca 9c bd 97 d9 b3 3d 72 2e bc bd
       0.105656855 -0.07655724 0.08781736 -0.09188546
000010 2c 1d a7 3d
       0.08159861
